…
ata":{"needs_background":"light"}},{"output_type":"stream","name":"stderr","text":["/usr/local/lib/python3.7/dist-packages/keras/optimizer_v2/adam.py:105: UserWarning: The `lr` argument is deprecated, use `learning_rate` instead.\n","  super(Adam, self).__init__(name, **kwargs)\n"]},{"output_type":"stream","name":"stdout","text":["Model: \"sequential_2\"\n","_________________________________________________________________\n"," Layer (type)                Output Shape              Param #   \n","=================================================================\n"," conv2d_4 (Conv2D)           (None, 128, 128, 8)       224       \n","                                                                 \n"," activation_8 (Activation)   (None, 128, 128, 8)       0         \n","                                                                 \n"," conv2d_5 (Conv2D)           (None, 126, 126, 8)       584       \n","                                                                 \n"," activation_9 (Activation)   (None, 126, 126, 8)       0         \n","                                                                 \n"," max_pooling2d_4 (MaxPooling  (None, 63, 63, 8)        0         \n"," 2D)                                                             \n","                                                                 \n"," max_pooling2d_5 (MaxPooling  (None, 31, 31, 8)        0         \n"," 2D)                                                             \n","                                                                 \n"," dropout_4 (Dropout)         (None, 31, 31, 8)         0         \n","                                                                 \n"," flatten_2 (Flatten)         (None, 7688)              0         \n","                                                                 \n"," dense_4 (Dense)             (None, 1024)              7873536   \n","                                                                 \n"," activation_10 (Activation)  (None, 1024)              0         \n","                                                                 \n"," dropout_5 (Dropout)         (None, 1024)              0         \n","                                                                 \n"," dense_5 (Dense)             (None, 2)                 2050      \n","                                                                 \n"," activation_11 (Activation)  (None, 2)                 0         \n","                                                                 \n","=================================================================\n","Total params: 7,876,394\n","Trainable params: 7,876,394\n","Non-trainable params: 0\n","_________________________________________________________________\n","Epoch 1/16\n","106/106 [==============================] - 37s 342ms/step - loss: 1.0569 
…
serId":"08844625614697965929"}},"colab":{"base_uri":"https://localhost:8080/","height":1000},"outputId":"7990ecbe-1c4b-4bf3-eeb8-f183f9e419fd"},"source":["visualize.vis_hidden_layer('incorrect.txt', 'activation_1', IMAGE_SIZE)"],"execution_count":10,"outputs":[{"metadata":{"tags":null},"name":"stdout","output_type":"stream","text":["Model: \"sequential\"\n","_________________________________________________________________\n"," Layer (type)                Output Shape              Param #   \n","=================================================================\n"," conv2d (Conv2D)             (None, 128, 128, 8)       224       \n","                                                                 \n"," activation (Activation)     (None, 128, 128, 8)       0         \n","                                                                 \n"," conv2d_1 (Conv2D)           (None, 126, 126, 8)       584       \n","                                                                 \n"," activation_1 (Activation)   (None, 126, 126, 8)       0         \n","                                                                 \n"," max_pooling2d (MaxPooling2D  (None, 63, 63, 8)        0         \n"," )                                                               \n","                                                                 \n"," max_pooling2d_1 (MaxPooling  (None, 31, 31, 8)        0         \n"," 2D)                                                             \n","                                                                 \n"," dropout (Dropout)           (None, 31, 31, 8)         0         \n","                                                                 \n"," flatten (Flatten)           (None, 7688)              0         \n","                                                                 \n"," dense (Dense)               (None, 1024)              7873536   \n","                                                                 \n"," activation_2 (Activation)   (None, 1024)              0         \n","                                                                 \n"," dropout_1 (Dropout)         (None, 1024)              0         \n","                                                                 \n"," dense_1 (Dense)             (None, 11)                11275     \n","                                                                 \n"," activation_3 (Activation)   (None, 11)                0         \n","                                                                 \n","=================================================================\n","Total params: 7,885,619\n","Trainable params: 7,885,619\n","Non-trainable params: 0\n","_________________________________________________________________\n","hidden_channel_amount = 8\n","target_datasets_collapse/val/0/S__116277291.jpg\n"]},{"dat
…
